AI/output/agent.pth (torch, 110525 bytes, 83 tensors)

pos_emb f4 [17, 16]
00000000: 92a2 f03c a807 453e 1ab8 f7bc d7ff a3bd
00000010: 213e a13d 7db0 f4bc 327e be3d 2d94 8dbd
00000020: b9b7 36be 21bd 01be 26e5 bc3a 26c3 653d
00000030: 8e1e aabc 0fc6 6fbd 0327 cebc 28e0 59bc
00000040: 540d 623d 949d 473d c457 24bc c786 83bd
00000050: 0a1e 0ebd 313a cbbd 3587 96bd c7c6 aa3d
00000060: 8c8b 36bc 21ea 323d 20db 4cbd 3999 2ebe
00000070: 2bc2 ed3c 151b c03d 765a b6bc c71c 523d
00000080: 5a00 103d 81c4 8ebc 7413 7abd 5465 133e
00000090: 9757 4bbb 379f 0e3e ea22 313e 1312 39be
000000a0: 8f67 b4bd 5cc1 183d e7a8 903d 2319 003e
000000b0: 1ddd 0c3c dafb 533c 51e4 4c3d ed4b fdbd
000000c0: e37a 003d 0a5d 413d d227 11be a11a 2ebc
000000d0: bbd1 a1bd 1c75 723d a771 3d3e a102 fcbc
000000e0: 1371 d4bd effb 8ebd 9b95 ebbd 387c 693c
000000f0: 3758 8c3c 7fc8 f03b 2917 42bd f0f8 04be
00000100: 7fb4 223e d7fc 4c3d 244b 353b 2cd0 4d3d
00000110: 81f3 6ebd 9104 d03c 9cca 73bd 08d2 9ebd
00000120: 6d3c b1bc f8fa b7bc 4b29 b5bc de4a d23d
00000130: cde3 9bba 840b 44be 371c 45bd 61cd ecbc
00000140: 4c43 08be c608 823d 4833 f6bb 329d 01be
00000150: be85 e13d 1744 1dbd d6d1 883d 1d76 0cbe
00000160: 9ece 043d f67b 6f3d 0c2f 503c f1e2 02bd
00000170: ee3e e1bd e5e4 bebd b3eb 97bd 591b bdbd
00000180: 53c2 a83d 65ac 993d 2e33 2a3e a519 023c
00000190: 19e1 053e a112 cf3d a0ee 2abe b0d7 2e3b
000001a0: 5cc7 523e 01e6 6d3d 0a97 51be e559 353d
000001b0: c5e1 56bd 32ca a83d 97f8 4bbd a6b7 cdbc
000001c0: e68e e0bd 13fb b3bb 481a 643a 3586 643d
000001d0: 73a6 07be 5b3f b03d f5fc d2bd 0379 82bd
000001e0: ebb0 243c c8ec 99bc 752f 403d d8d0 703d
000001f0: 9208 953e 33c0 49bd b66e ad36 ce31 fb3c
00000200: 0adf 2d3e 4319 d2bd f019 a93d c1f4 d6bd
00000210: 31db 63bd bf21 89bd fe61 91bd b0fc babd
00000220: d49e 0d3d 40af 01bc 4262 403c de15 f5bd
00000230: b88c cc3c 8fef ab3d ee13 df3c 529b 9bbd
00000240: 3db4 293e 3e94 be3c 261c 5e3d ee5d c73d
00000250: 72b5 b1bd a3db 4fbd 866f 26bd 18a0 c63d
00000260: 210c 2bbe f329 0fbe 6bb9 f53d 537b aa3c
00000270: 5689 843d 8bc1 8cbd d27c 313d f268 9c3d
00000280: e46c 2f3e dc25 493d 0ad2 373c 2be1 413e
00000290: b75e 873d 0788 2f3d 2002 c8bd 0b6d 6fbd
000002a0: 68df 703d 1565 9e3d 62bb 2abd 4e81 14bd
000002b0: 1d00 7d3d aa03 2e3e 2301 a7bd 44d4 ed3d
000002c0: f4cc 18be b902 d7bc 3f99 10bd 81f2 4fbc
000002d0: 9084 06bd 4d39 653d 455d cdbd f96d 2e3d
000002e0: ee12 2fbc d6b9 1bbd 16bc 0fbc a9a6 f0bd
000002f0: 2f0a 1d3e aa45 06be eac1 96bc 66d6 263d
00000300: 1e0f 413d d4a9 953d b7f4 843d a6c2 aabd
00000310: 3381 d53d eb47 42bc 6f9a 48be 5aa4 babd
00000320: 065b 1b3b 14f5 443e 51a1 83bc bb86 c3bd
00000330: e8ed 81bd 932e a33c 0095 ad3c 59db 453d
00000340: 0b7b 30bd 8917 d3bd e4b9 d13d db0a 30be
00000350: fc56 403d 464f f4bc 264f 933c 2f84 af3d
00000360: 75ca febd 9f85 853d b4c8 143d 3adc 93bc
00000370: 97d8 e7bd 3d38 58bd 812f d6bd 3b33 7b3d
00000380: 8753 3a3d 8dd1 ac3d 26d8 c1bd e281 04be
00000390: 3155 5cbd 4a9c 0fbd ff06 c0bc 98ce fe3c
000003a0: fb19 333d 5bdf 1dbd 6efb f4bd b396 75bd
000003b0: 2c18 c2bd 8d9b 1a3e 5453 f1bc b6e0 18bd
000003c0: 6e84 183e b772 973d 584d c4bd e26c 77bd
000003d0: cfd7 db3d a8ca 90bc 6987 e5bd cd0c 1c3d
000003e0: 2b2d 3dbe 96ed 32bc 5b80 4fbd 5c1a 643d
000003f0: 3545 87bd cadc 41bd 4b3d d73d 9d35 83bd
0.029374395 0.19241202 -0.030239154 -0.08007782 0.07873178 -0.029869312 0.093014136 -0.06913028
-0.17843522 -0.12669803 0.0014411553 0.05609431 -0.020766523 -0.058538493 -0.025165087 -0.013298072
0.055188492 0.048734263 -0.010030691 -0.06422191 -0.034696616 -0.099232085 -0.073500074 0.08338695
-0.011141669 0.043680314 -0.05001366 -0.17050637 0.02902325 0.093801655 -0.022259932 0.051296975
0.035156585 -0.017427685 -0.06105371 0.14394122 -0.003102755 0.13927923 0.17298475 -0.18073301
-0.08808815 0.037293777 0.070634656 0.12509589 0.008597639 0.012938464 0.050022427 -0.12367997
0.031367194 0.04720787 -0.14175346 -0.010626466 -0.07901331 0.059193715 0.18500386 -0.030762972
-0.1037313 -0.06981646 -0.11503144 0.014250807 0.017131908 0.0073481197 -0.04738537 -0.12985587
0.15889166 0.050045814 0.0027663196 0.050247356 -0.058337692 0.025392802 -0.059519395 -0.07754904
-0.021635259 -0.022458538 -0.022114417 0.10268186 -0.0011893451 -0.19145018 -0.04812261 -0.028906526
-0.13306922 0.0634933 -0.0075134374 -0.12657622 0.110118374 -0.038395014 0.06680648 -0.13716932
0.032423608 0.058467828 0.012706529 -0.03195471 -0.10998331 -0.09321002 -0.07418003 -0.09233732
0.082401894 0.07503585 0.16621086 0.007940684 0.13074149 0.10110975 -0.1669259 0.0026678853
0.20583862 0.058080677 -0.20467773 0.044275183 -0.052461404 0.08241691 -0.04979762 -0.025111984
-0.10964756 -0.005492577 0.0008701426 0.055792052 -0.13247089 0.08605834 -0.10302154 -0.063707374
0.010051946 -0.018789664 0.04692026 0.05879292 0.291081 -0.04925556 5.16869e-06 0.030663397
0.16979614 -0.102587245 0.082569 -0.10495902 -0.05562896 -0.0669589 -0.07098769 -0.091302276
0.0345753 -0.007915318 0.0117421765 -0.119670615 0.024969444 0.083953016 0.027231183 -0.075979844
0.16572662 0.023264047 0.054226063 0.097347125 -0.08677186 -0.05074657 -0.0406337 0.09698504
-0.16703846 -0.13980846 0.11998256 0.020810759 0.06471507 -0.06872853 0.04333193 0.07637204
0.17131382 0.04910837 0.011219511 0.18933551 0.06609862 0.042854335 -0.0976603 -0.0584536
0.058806807 0.077341236 -0.04168261 -0.036256127 0.061767686 0.16993585 -0.08154514 0.11612752
-0.14921933 -0.026246415 -0.035302397 -0.012692095 -0.032841265 0.05596285 -0.100275554 0.042585347
-0.0106856655 -0.038019024 -0.0087728705 -0.11750538 0.15335916 -0.13112512 -0.018403012 0.04073181
0.047133557 0.07307783 0.06491988 -0.083379075 0.104250334 -0.011857967 -0.19590162 -0.09113379
0.0023705377 0.19234115 -0.016068133 -0.09547182 -0.06344205 0.01991967 0.021189213 0.04830489
-0.043086093 -0.10307223 0.10240534 -0.17191641 0.046957955 -0.029822957 0.017982077 0.08570134
-0.12440959 0.06519627 0.036324218 -0.018049348 -0.11320608 -0.052788008 -0.104582794 0.061328154
0.045489814 0.08438406 -0.09465055 -0.12940171 -0.053792182 -0.03506116 -0.023440836 0.031104371
0.04372595 -0.038543086 -0.11962019 -0.05995817 -0.09477267 0.150984 -0.02945868 -0.037323676
0.14894268 0.07394927 -0.09585065 -0.060406573 0.107345216 -0.017674759 -0.11207468 0.038098145
-0.18474261 -0.010920903 -0.05065952 0.0556892 -0.06604997 -0.0473297 0.105097376 -0.0640671

emb.weight f4 [17, 16]
00000000: d050 e03d a338 c3bf 5460 c03e 6a79 aa3c
00000010: cfe4 02c0 92ff 853f 6598 0a3f f11d b03d
00000020: 68ae 923f ed4c 2d3f ecda fabf 3418 88bf
00000030: c42c 84bf a575 21bf b1eb 833f af27 3240
00000040: 95c2 d13e a1d3 0ebf 9d50 85bf a57d dd3f
00000050: db5b 0a40 bd41 5ebe a1b9 943f 7a66 813f
00000060: 3140 843e 9c68 28bf 3cc9 c93f 018d e5be
00000070: 0f9c 8a3f 2fe8 cf3e fb77 29be a13b 963f
00000080: 3d1f 25bf 5b51 a03e ca2a 63bf d8fa fa3f
00000090: 0f6d 4a3e 4ddb b3bf 1f62 d0be 3494 a9bf
000000a0: 7419 6f3f 4c16 44bf bb27 2bc0 0659 843f
000000b0: e9ec a13f 5143 b5be c0a9 a3be 8620 04c0
000000c0: 04d6 223f f756 e53e 42aa 7ebf 95ee ccbe
000000d0: fd39 e23d 1676 c8bf 669f a0bf 39d5 6440
000000e0: 0de0 7d3f 5964 4b3f 4cab a1bf 6be9 e2bd
000000f0: 8410 923e 99da b3bf 7eff 483f 6df9 2abf
00000100: 5bb1 8dbf be78 afbf 6245 1a3f e741 823e
00000110: 36b5 4fc0 2393 dc3e bfe4 c3bf 554a 48bf
00000120: 2d90 1c3f b4af fb3e 095a 433f 1da6 bdbf
00000130: 0261 a6bf af71 a2be 5d99 b9bf fa11 763f
00000140: 4672 053f f3a8 2bbf 8825 9f3d b8f2 a53f
00000150: 2e18 d6bf ef68 993f 90ea 973f 79b5 cb3e
00000160: 5494 8e3f 112d e53e eb5e 0ebf a005 84bf
00000170: c1c2 ddbf 95ed 2c3f bc71 563f 1ca9 933c
00000180: 44c5 363f aa17 4a3f 47f8 083f 9e5c 383f
00000190: 621a d4be 199f 053e a3ef 8abf 7985 6dbe
000001a0: 9722 bc3e ffbf c53f 4d92 2e3f dd3b b93e
000001b0: ff6d 8f3e 9736 123f a137 22bd fef0 0140
000001c0: 2e09 783e 628a e13f cb8e 07c0 3cb1 39bf
000001d0: 975a 9fbf d7a8 8d3f e518 283f 0692 0f40
000001e0: a97f 8b3f 31b0 cfbe d26e c53e f511 a03e
000001f0: 2845 0f3e 6d7d e43d a46b 253e b1a3 383f
00000200: aec6 b6be 3c88 1a3f e11f a3be dd56 c23f
00000210: 4d1a d0bf e7f8 41bf 76fd ca3d a617 32bf
00000220: 151d 64be 7518 143e 897b ab3f fa13 823f
00000230: 84d7 34bf c2cd a83f ddd8 29bf 02d3 0ebe
00000240: 5c41 1fbf 6831 f13f ee98 81be 0faf 073f
00000250: aeae 4d3f 16b5 39be 0eea 0e3f 154d 883f
00000260: 79d1 663f 7ecd 1fbf 5c7e 983f d660 443f
00000270: 143b da3e 4200 bf3f df24 b1be 080a 903e
00000280: 6f5e fdbe b58d 903f e0c1 f53e 9c64 f63f
00000290: 4239 aa3e 87d5 e2bd b0fe a83f 31fe 4f3f
000002a0: 119a 093f 6a30 0fbf dd97 353e eedd b5bf
000002b0: fa29 823e 733a ad3d 05b0 7e3f d351 8ebe
000002c0: 0299 72bf 5e1e fe3e 1f16 be3f 4f38 d03d
000002d0: 6fb5 363e 141f 3a3e 4a94 ff3e 5bbb fcbe
000002e0: 5b55 50bf f7b3 bc3f fd4b 1d40 a02f 463e
000002f0: aace 23bf c628 4ebf 5959 6bbf 32c8 0f40
00000300: 58fc 1cbf f161 573f 75a2 da3f 1dbd 083f
00000310: bd5c c1bf a9fb 99bf 1b14 2140 ff7a 203f
00000320: 2a98 ee3d 926a 9c3e 71fa 4fbe c1c5 edbe
00000330: ef81 54bf 9726 34c0 913c 223d 03e3 6bbd
00000340: c1a8 d5bf ae54 9e3f d72a 88bf eb9f 943f
00000350: 7204 8d3f 61fa b83c a425 b23f 9b34 8bbf
00000360: cf72 8abf 00d5 9fbe 53f7 27bf e6eb 90be
00000370: 1c8e 96bf 978e 28be fe32 a23f 42da 853e
00000380: bf6f 923e 09e8 2740 7517 4d3f 9e10 063f
00000390: e509 ee3d 25a9 bf3e fbdb 9b3c 9468 b0bf
000003a0: 6909 7abf f79b 673f a08f 77bd 2018 0840
000003b0: d6fb fc3d 704f 6cbf ca64 41bd 80a8 963d
000003c0: eb09 c0bf a0a5 18bf a838 a5bf 8f86 53bd
000003d0: a4b4 883f 4072 19c0 32ee b2bf 1963 ec3f
000003e0: d0a6 de3e cbc9 383f 51ab b8bf ea55 98bf
000003f0: 5aaa 10bd 4c60 713f 30ca c2be d1be 61bf
0.10952914 -1.5251659 0.37573493 0.020809848 -2.0452154 1.0468619 0.54138786 0.08599461
1.1459475 0.67695504 -1.959806 -1.0632386 -1.0326161 -0.63070136 1.0306302 2.783672
0.40968767 -0.5579167 -1.0415226 1.7303969 2.1618564 -0.21704765 1.161915 1.0109398
0.25830224 -0.6578462 1.5764537 -0.4483414 1.0828875 0.4060683 -0.16549675 1.1736947
-0.6450079 0.3131207 -0.88737166 1.9607801 0.19768165 -1.40513 -0.4069986 -1.3248353
0.93398213 -0.7659652 -2.6743 1.0339668 1.2650424 -0.3540292 -0.31965446 -2.064485
0.6360781 0.4479291 -0.9947854 -0.40025774 0.11046217 -1.5661037 -1.2548645 3.575514
0.9917 0.79449993 -1.2630401 -0.11079677 0.28528225 -1.4051086 0.7851485 -0.66786844
-1.106975 -1.3708723 0.6026212 0.25440904 -3.2454352 0.43081006 -1.5304183 -0.7823842
0.61157495 0.49157488 0.7630926 -1.4816319 -1.2998354 -0.3172736 -1.4499928 0.9612118
0.5212749 -0.6705467 0.077708304 1.2964697 -1.6726129 1.1985148 1.1868458 0.3978689
1.1139016 0.44760945 -0.55613583 -1.0314217 -1.7325059 0.6755002 0.83767295 0.018024974
0.71394753 0.7894236 0.5350384 0.7201632 -0.41426378 0.13048972 -1.0854381 -0.23195447
0.3674514 1.5449218 0.6819199 0.36178485 0.28013608 0.5711455 -0.039603833 2.030334
0.24222252 1.7620356 -2.1180904 -0.72536063 -1.2449521 1.1067151 0.65662986 2.2432876
1.0898334 -0.4056411 0.38561112 0.312637 0.13991225 0.111567356 0.16154343 0.72124773
-0.35698456 0.6036413 -0.3186026 1.5182759 -1.6258026 -0.7577042 0.09911625 -0.69567335
-0.22276719 0.14462455 1.3397075 1.0162346 -0.7064135 1.3187792 -0.6634653 -0.1394768
-0.62209105 1.8843203 -0.2531199 0.53001493 0.80344665 -0.18135485 0.5582589 1.0648524
0.9016338 -0.6242293 1.1913562 0.7671026 0.42623198 1.4921954 -0.34598443 0.28132653
-0.4948611 1.1293246 0.47999477 1.9249454 0.3324681 -0.11075883 1.3202724 0.8124724
0.5375071 -0.5593325 0.17733712 -1.4208353 0.2542265 0.08458414 0.99487334 -0.27796802
-0.9476472 0.49632543 1.4850501 0.1016699 0.17842649 0.18175918 0.49917823 -0.4936169
-0.8138024 1.4742421 2.457763 0.19354105 -0.6398722 -0.80530965 -0.9193321 2.246594
-0.61322546 0.8413382 1.7080828 0.53413564 -1.5106426 -1.2029926 2.5168521 0.6268768
0.11650117 0.30550057 -0.2031038 -0.46439937 -0.8301076 -2.8148553 0.039608542 -0.057589542
-1.6692125 1.2369592 -1.0638074 1.1611303 1.1016982 0.022580327 1.3917737 -1.0875429
-1.0816287 -0.31217194 -0.6561176 -0.28304976 -1.1762118 -0.16460644 1.2671812 0.2614308
0.2860088 2.6235373 0.8011392 0.52369106 0.11622981 0.37433735 0.019025793 -1.3781915
-0.9767061 0.9047236 -0.060439706 2.1264725 0.123527214 -0.9230871 -0.04721526 0.073563576
-1.5003027 -0.59627724 -1.2907915 -0.051641997 1.0680127 -2.3975983 -1.3978941 1.8467742
0.43486643 0.7218291 -1.4427282 -1.1901219 -0.03531871 0.9428756 -0.38044882 -0.8818179

transformer.layers.0.self_attn.in_proj_weight f4 [48, 16]
00000000: 9aaa f4bd 53a5 6c3d 8e32 6f3e c847 3ebe
00000010: c7b9 aa3d e6e4 903e ce62 683e df3d 9abe
00000020: c202 f83a f3dd 01bd 06a8 af3d 2048 52be
00000030: f002 72be 5775 f4bd 45c7 6abe 2a84 123e
00000040: 6fb8 97be be82 083e 9f1e 953d 47f4 813e
00000050: 0f19 94be 0105 82be a722 1d3e 8bc0 8ebe
00000060: 933e dabd fb30 223d f075 833e 57a1 5bbe
00000070: 1e8a 83be f5c4 f3bd b40a 83be f9e9 d8bd
00000080: 468d 253d 0b3e 8bbe aca5 8bbe fc83 89be
00000090: 6149 69be ab3f 7a3e 384b 123e 4435 e43d
000000a0: 4ae9 943d 7ea3 0f3d a4df 51be d6de a0bb
000000b0: 73e9 b0bc 4e7c b5bd 8674 0dbe 9d2b 2cbe
000000c0: 0abc bc3d 8c0b ebbc c4ec 553e 63f2 08ba
000000d0: 991b fa3d 621a 8dbc 76d2 073e c031 023e
000000e0: ea31 853e 0cdf 1c3d 9e38 df3d 30f4 81be
000000f0: 6138 e4bc ac8a 1d3d 40b3 b8bd 727e 283b
00000100: 02da c8bd 4659 75be fdf3 26bc e845 ccbd
00000110: 502f 753e f348 3c3e bc89 bd3c efca d03d
00000120: 966d 1b3e 223b 7e3e 781b 95bc 1e0f 593d
00000130: f5db de3d 7d69 69be 9c4a b7bd becb 72bd
00000140: c3be aebd 9b9a 29bd fd0f 8d3e aba0 30be
00000150: fd55 953e 4056 7ebb e28e 67be d18d 6b3d
00000160: 4165 0c3e e31b 573e 3d95 ce3d 30ca 093d
00000170: 2fdd c5bd 8eea 5cbe 248a 1c3d 1e94 7b3d
00000180: 425f 3c3e a4c5 043e ac7d 77be 3a7d 393d
00000190: 1b8f 59bd 96fd 9abd 98ae 423d 2eae 763e
000001a0: e7b5 683e a47e 45be 6d84 d73d e278 753e
000001b0: c33b b9bd de46 77be 82d0 94be e3f5 d43d
000001c0: be72 c83d a3fa d2bd a8bb 33be 1cf5 383e
000001d0: 8ae3 92be 7226 44be a467 12be f03d a6bc
000001e0: 483a 6e3e 3744 0b3e 3e8a 983d 29e4 b9bb
000001f0: 537b 61be 029f 133e fbce 203b 4841 4d3e
00000200: 3e3f 6c3e b062 77be 507c a03e e773 c1bd
00000210: 2578 55be cb50 0bbe d856 263e 9244 4a3d
00000220: 6174 1d3e 3a23 eebd 1543 523e a1e3 6fbe
00000230: d593 4bbe 109c b9bd 5a0a 28be 7632 6d3e
00000240: 7e83 79be 6ad7 28bd 74ec 253e 407b 8c3d
00000250: befc 7d3e 5abb 7c3e f5ec 7f3e c710 943d
00000260: 4303 31be 55ee 693e 123c 073e 67e3 16be
00000270: 0197 98be d7e3 7fbe 8d93 1bbd 4129 80be
00000280: da3d 8dbd 801f 983e 8ea5 283e 5df4 a13e
00000290: 3494 01be f98d 283e b8c6 1bbe 394e 933e
000002a0: a411 05be 54be 53be 56c5 443d 6662 8b3e
000002b0: c6c6 8d3d d1b7 0e3d a25a d7bd 088e 1fbe
000002c0: e9ba 793e bf35 69be dc20 9a3d 5426 61bd
000002d0: 021a 703e 03a9 0dbe 90d8 333b 3bcd b4bd
000002e0: 1c6e 763e 3722 edbd 39ae 1bbe 4f97 e5bd
000002f0: 0c7b 08be ba49 9b3d cdf3 8b3e 0867 2b3e
00000300: e01d 2e3e d793 0f3e dec2 29be 261c a4bd
00000310: 9ee1 9dbe b110 b83d d146 ec3d 9635 933d
00000320: 58f3 3abe fccf 913e daa4 393e 2be6 4dbc
00000330: 4af3 b03d 2a9d 893e cfff 24bd e672 8a3d
00000340: d0bb 07be 0c3b 37be 9fe0 043e 8563 81be
00000350: 10ba 873e 7492 3ebe fb11 cabd b944 9f3e
00000360: 2aa5 84bd 2504 c6bd 4924 b3bc e91f 7f3e
00000370: a43f 243e e3f2 84be 3960 39be c89f b83a
00000380: 6bf4 e13d 7dd6 4b3d 4426 4dbd 6aab 39be
00000390: d79c 8b3e 92cb 163d 24e1 84bd 6532 47be
000003a0: 9332 2c3e f8fa 33be b754 823e a368 8c3d
000003b0: c58f 8ebc 09a3 2cbd a1f5 7dbe 5ac7 79be
000003c0: 6969 873e 1705 1d3e f5b7 40be eda4 b7bd
000003d0: 1005 03bc 886c 583d 1b91 3a3e 6f13 4fbd
000003e0: e582 38be b562 96bd e44c e2ba 2fdc 833e
000003f0: eb1a 80be d7a4 85bc 7f3b 8cbd 147e 8dbe
-0.11946602 0.057774853 0.23359129 -0.1858207 0.083362155 0.28299636 0.22693941 -0.3012533
0.001892172 -0.031705808 0.0857697 -0.20535326 -0.23633933 -0.11936443 -0.22927578 0.14308229
-0.296329 0.13331124 0.07281231 0.2538168 -0.28925368 -0.25394443 0.1534525 -0.27881274
-0.10656466 0.039597493 0.25675917 -0.21448265 -0.25691313 -0.11902801 -0.25594103 -0.10591502
0.040417932 -0.27195773 -0.27274835 -0.2685851 -0.22781898 0.2443835 0.14286506 0.11142972
0.07271059 0.035068028 -0.20495468 -0.0049093766 -0.021595692 -0.088616 -0.13813981 -0.16813512
0.09215553 -0.02869203 0.208911 -0.0005224107 0.12212295 -0.017224494 0.13263878 0.1271429
0.26014644 0.03829865 0.10899471 -0.25381613 -0.027858915 0.038462326 -0.09018564 0.0025710133
-0.09807207 -0.23959836 -0.010190007 -0.09974271 0.2394383 0.18387203 0.023136966 0.101949565
0.15178522 0.24827245 -0.018201575 0.052992932 0.10881797 -0.22794147 -0.089497775 -0.059276335
-0.08532479 -0.04140721 0.2755126 -0.1724879 0.29167166 -0.0038808733 -0.22613099 0.057508294
0.137105 0.21006732 0.10087059 0.033640087 -0.09661328 -0.2157385 0.03821768 0.061420552
0.18395713 0.12966019 -0.24169034 0.04528544 -0.05311499 -0.07567899 0.047529787 0.24089882
0.2272564 -0.19286591 0.10523305 0.23971894 -0.09044602 -0.24148127 -0.2906533 0.10398462
0.0978751 -0.103017114 -0.17552054 0.18062252 -0.28689224 -0.1915529 -0.14297348 -0.020293206
0.2326442 0.1360024 0.074482426 -0.0056729508 -0.220197 0.14416125 0.0024537432 0.20044434
0.23071 -0.2415874 0.31344843 -0.09445935 -0.20846613 -0.13605039 0.16244066 0.0493818
0.15376426 -0.11627813 0.20533402 -0.23426677 -0.19880612 -0.0906297 -0.16410199 0.2316378
-0.24366567 -0.04122106 0.16203481 0.068594456 0.24803445 0.24680844 0.24992736 0.072297625
-0.172864 0.22844823 0.13206509 -0.14735185 -0.29802707 -0.24989258 -0.037982512 -0.25031474
-0.06896563 0.29711533 0.16469404 0.31631747 -0.12654191 0.16460408 -0.15212524 0.28770617
-0.1299501 -0.20678073 0.048039757 0.2722351 0.06922679 0.03484327 -0.10515334 -0.15581524
0.24387707 -0.22774409 0.07525799 -0.054968193 0.23447421 -0.13834004 0.0027442314 -0.08828207
0.24065441 -0.115787916 -0.1520318 -0.112105004 -0.13328189 0.075824216 0.27334443 0.16738522
0.17003584 0.1402124 -0.16578242 -0.080131814 -0.30836195 0.08987559 0.11536945 0.07187955
-0.18256891 0.28478992 0.18129292 -0.012567083 0.08640154 0.2687772 -0.04028302 0.067601964
-0.13255239 -0.17893618 0.12976311 -0.2527124 0.26509142 -0.18610555 -0.09866711 0.3110712
-0.06476815 -0.09668759 -0.021867888 0.24914517 0.16039902 -0.25966558 -0.18103112 0.0014085704
0.11032947 0.0497651 -0.05008532 -0.18131796 0.27268097 0.036815234 -0.06488255 -0.19452818
0.16816168 -0.17576206 0.25455257 0.06855895 -0.017402539 -0.04214767 -0.24800731 -0.24392453
0.2644761 0.15333973 -0.18820174 -0.08967004 -0.007996812 0.05283788 0.18219416 -0.050555643
-0.18018682 -0.073430456 -0.0017265347 0.25753924 -0.25020537 -0.016313953 -0.068472855 -0.27635252

transformer.layers.0.self_attn.in_proj_bias f4 [48]
00000000: cc6e adba 9345 eeba 0e35 8c3c b6d8 d63b
00000010: 4061 bbbc 1bf5 dabc 4459 05bc fb82 f1bb
00000020: 24af 64ba 8ef3 2039 eec3 023c 0c91 febb
00000030: d7a9 26bc 8b3d 5bba d5f8 38bc e536 22bc
00000040: a003 6cb7 ae70 9539 64e5 fdb9 3d09 6138
00000050: 1bc8 4838 635a 2038 b92f 32b5 7b71 043a
00000060: d557 3439 9a1f 0eb8 57a3 1138 7e47 6039
00000070: 8607 bbb7 46e2 5039 86d3 f9b9 3190 8c37
00000080: c0f5 92bb e5ca c5bb e73f c9bb ec7f 133c
00000090: 16b1 a6bb 6765 843b 84bd 7ab9 42ea 27bb
000000a0: 1497 0bbc d96c f4bb 816f 663c 7b0b 9cbb
000000b0: 4b38 d93b c86f 8e3c 7d92 e7ba b609 253c
-0.0013231873 -0.0018178694 0.017115142 0.0065565957 -0.02287352 -0.026728204 -0.008138958 -0.0073703504
-0.0008723608 0.0001534952 0.007981284 -0.007768756 -0.010172329 -0.00083633576 -0.011289795 -0.009900783
-1.406754e-05 0.00028503448 -0.0004842683 5.3652784e-05 4.787008e-05 3.8231152e-05 -6.6379613e-07 0.00050523103
0.00017198858 -3.388487e-05 3.4722816e-05 0.00021388938 -2.229564e-05 0.00019920719 -0.00047650578 1.6756445e-05
-0.004484862 -0.00603615 -0.006141651 0.009002667 -0.0050870283 0.0040404084 -0.00023912458 -0.0025621806
-0.008519907 -0.0074592647 0.014064671 -0.0047621108 0.006629025 0.017387286 -0.0017667558 0.010073116

transformer.layers.0.self_attn.out_proj.weight f4 [16, 16]
00000000: 4a24 713e c081 2fbe 3df3 c53d d82d 8b3e
00000010: d7bb db3d 5d48 f7bd 0c51 253e 2cbd 4cbe
00000020: bca7 cf3d a412 18be aa35 6f3e 8455 62be
00000030: 3162 543e 0b2f 2dbd b16e 25be 8a5e 8ebc
00000040: e231 bebd cd70 573d 82b1 d8bd de85 343d
00000050: a647 b03d f3f6 9b3d 024d af3d 90fd 7c3e
00000060: 87ac f4bd 112e 003e 88f3 da3d 8857 1c3e
00000070: cf8f 1e3e 14c9 763e b462 573e 4e74 de3c
00000080: a1c4 4b3e 92ea a6bd eabb 01be 3add 623e
00000090: 8e0c 3fbe 2b00 e3bd 4641 6f3e dc9a 47be
000000a0: d95c 783e 7767 1e3e 346c 543e d6ee 89bd
000000b0: 9cd6 14bb ae52 0b3e b35a 0b3e 058e 413e
000000c0: b7c4 143e ac99 633e 2fb1 8dbc 8f2c 783d
000000d0: 9e57 ac3d 4ed8 193e 259e 0c3e 761f d93d
000000e0: 7695 94bd d2bc 323d 0684 203d 1530 f43c
000000f0: fce0 453e 8df7 ed3d ca92 d23c 9b8f 4abe
00000100: bb81 4fbd 321d 623e 9c95 073d 4dd4 6dbe
00000110: 4c91 e63d 324d 6f3d be11 f5bd 69bd 68be
00000120: eb30 d9bd 9832 523e f7bf 4ebe f634 ea3d
00000130: f01e e9bd af9f 18be bd29 123c 3a60 a3bd
00000140: b053 3c3e a1e3 e4bd d531 52be e1ea 6f3d
00000150: 2e85 5cbd 5d1d 323e 29f6 e73d f13d 45be
00000160: 7753 f0bd 945c 63bc 36ff 43be f56f 433e
00000170: e4b9 8c3d 6c25 69be 71ed a63d 68c6 3fbe
00000180: 811e ca3d b454 0ebe 08a8 36be b813 ce3d
00000190: ca3a dcbd 9cd9 213e ddae 123d 6cf6 d33d
000001a0: cc60 b4bd e169 3dbe e841 16bd 4e08 96bd
000001b0: 117b 183c d273 753d ba51 5b3e d53c e4bd
000001c0: 6bee 6dbd 34aa 7abc d05e 46be 8c96 323e
000001d0: 4cae 3ebd 1804 72be b7ae 5fbe 79f8 823e
000001e0: b239 21be 09b7 27be 7ae9 c4bb 4ea6 2cbe
000001f0: 1c97 4b3d aa1c 07be 3bb1 20bd 7c7a 543e
00000200: 6350 39be 021d 293e 7453 ca3d a849 d13c
00000210: 834a 6bbe e335 133e c7b3 eabd 8c83 c23c
00000220: 42cf 2c3e 89ce de3d f537 02be 7d59 6c3e
00000230: f954 543e 5c13 41be 02c6 f63d 287d 09be
00000240: 209a 1f3e d86e 06be c347 57be d7b5 4cbd
00000250: d985 c2bc e23c cc3d 66ed 423e 5afd 6dbe
00000260: 1f68 48be 10d1 14be def3 1f3e 6712 20be
00000270: 2c8d a7bc 253b 063e 4d89 55be 234a 5ebe
00000280: df13 243e d441 4b3d a1b5 5d3e 778a 7e3c
00000290: fab3 91bd f289 393d 2ef7 d7bd f192 f3bb
000002a0: 0825 7d3e 0105 2c3e 1b8b 5c3c 5874 64be
000002b0: dc31 20be 4b33 0cbe 91c4 863e a2af 9dbc
000002c0: 8813 3fbe 84b1 6d3e 57d2 34bd 13bc 53bd
000002d0: 00f5 823e 6d2b ed3d abed b8bd 861b 1bbd
000002e0: 2171 553d ac16 97bd 81f2 6a3e 0baf a9bd
000002f0: 69a4 113b 3bf1 52be 279c 18be 3300 79be
00000300: bafb 0abe 5c35 febc 86e6 ebbd c3ed 0f3e
00000310: c377 15be f527 893e e9c9 653e f747 543e
00000320: 0ef8 10be 0123 943d fa20 bc3c 7de1 3ebe
00000330: df60 7c3d 8eb4 5a3d dca1 c03d 2da2 69be
00000340: 07b0 56be 8a22 0bbe 16c8 4fbe dc2d 463e
00000350: 8e3c 33be 433a 0a3e b7fa 453e f9a5 933d
00000360: 3df7 47be 6d85 a13c a617 353e b1f9 a33c
00000370: 8a83 5d3e 8602 af3d d6a0 5d3e a8c6 54be
00000380: 610a c33d df15 aabd d892 02be 511d 08bd
00000390: 6b60 24be df76 243e 8f5b 14be 7391 1a3e
000003a0: 2f55 00be 22ed 583e 5d32 f3bd c6e8 e33d
000003b0: 9247 12bc b1d2 e53d 3820 e5bd 51a7 86bd
000003c0: 5362 283e e36b 3c3e c6f7 213e 2ee7 5c3d
000003d0: 5b63 513e 1e75 02be 149a c0bb e444 6f3e
000003e0: e43c 16bd 0833 203e a313 86be cdb7 753e
000003f0: a26c 5fbd b48e 6bbe 3bd0 a6bc ac63 54be
0.23549 -0.1713934 0.09665535 0.27183414 0.10729187 -0.12074349 0.16144198 -0.19994038
0.10139415 -0.14850861 0.23360315 -0.22102934 0.20740582 -0.04228119 -0.16155507 -0.017379064
-0.09286858 0.05259781 -0.10580732 0.04407298 0.08607416 0.07615461 0.0855961 0.24706101
-0.119469695 0.12517573 0.10690981 0.15267766 0.15484546 0.24100143 0.21033746 0.027155068
0.19899227 -0.081502095 -0.1266934 0.22154704 -0.18657133 -0.110840164 0.23364744 -0.19492668
0.24254169 0.15469156 0.20744401 -0.067350075 -0.0022710925 0.13605759 0.13608818 0.18901832
0.14528166 0.2222659 -0.017296402 0.06058937 0.08415149 0.1502392 0.13732202 0.10601704
-0.0725507 0.043637104 0.039188407 0.029808084 0.19324106 0.11619482 0.02570476 -0.19781344
-0.05066083 0.2208145 0.033101663 -0.23225518 0.11258182 0.05842323 -0.11966275 -0.22728504
-0.106050335 0.20527112 -0.20190416 0.11435883 -0.11382854 -0.14904664 0.008921084 -0.07977338
0.18391299 -0.11176229 -0.20526822 0.058573607 -0.053837948 0.17394014 0.11326248 -0.1926191
-0.1173467 -0.013877053 -0.19140324 0.19085677 0.06871393 -0.22768182 0.08150757 -0.1872803
0.098690994 -0.13899499 -0.17837536 0.10062355 -0.107534006 0.15805668 0.035811294 0.103497356
-0.08807525 -0.18497421 -0.036683947 -0.07325803 0.009306685 0.059924908 0.21417895 -0.11144415
-0.0580887 -0.015299369 -0.19372106 0.17440242 -0.04655294 -0.23634374 -0.21843992 0.25580195
-0.15744665 -0.16378416 -0.006009278 -0.16860315 0.049704656 -0.13194528 -0.03923152 0.20749849
-0.18097071 0.16514972 0.09879199 0.025547817 -0.22977643 0.14376025 -0.11460071 0.023744367
0.16875938 0.10879237 -0.12716658 0.23081012 0.2073554 -0.18855041 0.12049486 -0.1342665
0.15586138 -0.13128221 -0.21023469 -0.049978103 -0.023745464 0.0997255 0.19035873 -0.23241177
-0.19570969 -0.14532876 0.15620372 -0.1563202 -0.020453058 0.131085 -0.20853157 -0.21707968
0.16023205 0.049623325 0.21651317 0.015535942 -0.07114406 0.04529757 -0.10545193 -0.0074332883
0.24721158 0.16798784 0.0134609 -0.22310007 -0.1564402 -0.13691442 0.26321843 -0.019248787
-0.18659794 0.23212248 -0.04414591 -0.051693033 0.25577545 0.115805484 -0.090297066 -0.037868045
0.05210984 -0.07377371 0.2294407 -0.0828534 0.002222324 -0.20599835 -0.14903317 -0.24316482
-0.13572589 -0.031031303 -0.11518578 0.14055543 -0.14596467 0.26788297 0.22440304 0.20730577
-0.14157125 0.07233239 0.022964943 -0.18640704 0.06161582 0.053394847 0.09405872 -0.22815771
-0.20965587 -0.13587394 -0.2029117 0.19353431 -0.17503569 0.13498788 0.19333921 0.07209391
-0.19527908 0.019716943 0.17684802 0.020016523 0.2163221 0.08545403 0.21643385 -0.20778906
0.09523464 -0.08304953 -0.12751329 -0.033231083 -0.16052406 0.1606097 -0.14488052 0.15094547
-0.12532495 0.21184209 -0.118748404 0.111283824 -0.0089281965 0.11221827 -0.11187786 -0.06574882
0.16443758 0.1840053 0.15817174 0.053931408 0.20448057 -0.12739989 -0.0058777425 0.23366123
-0.036679164 0.15644467 -0.26186857 0.23995896 -0.05454696 -0.23003656 -0.020362964 -0.20741147

transformer.layers.0.self_attn.out_proj.bias f4 [16]
00000000: c76d b43b fc11 603c 3c76 303b 771b ebbb
00000010: 73c6 5bbb 3584 ac3a 4345 3abb fdc0 483c
00000020: cb70 33bc 3943 caba 04b7 d2bb 5fb6 253c
00000030: 3b02 a8bb 8da2 e83b e955 5d3c e05a 19bc
0.0055062505 0.013676163 0.0026925942 -0.007174905 -0.0033535033 0.0013161959 -0.002842263 0.012253043
-0.010952185 -0.0015431411 -0.0064305086 0.010114281 -0.005127219 0.0070994557 0.013509252 -0.009360045

transformer.layers.0.linear1.weight f4 [64, 16]
00000000: e528 ec3d 22b3 4abe 0eb7 0fbe 16c3 cf3d
00000010: c2f8 a9bc ee97 643e 22a7 59bd 4395 03bd
00000020: f92f a3bc 0fd1 b9bd 324e babd 8ee7 44be
00000030: d4a1 85bd 7222 693d e28b ab3d d36f 7fbd
00000040: 00aa d1bd b045 243e 3525 e73d 4e42 f1bd
00000050: 4c0c 373e e1bd 28bd c556 473d 33f7 1bbe
00000060: 02be 4abe 90f8 a13d 2a14 ee3d f75f 13be
00000070: 962f c53d 6756 783e 640e cb3d 6e90 483e
00000080: ad61 4ebe ac8c 41be 5fb9 d2bd 6bb0 273e
00000090: 929c 86bd af29 05be 87d7 e4bd 7f0c 393e
000000a0: e98a 71be 9c86 e0bd 991d c43d 83b7 ae3d
000000b0: c40c 26be a873 d5bd 229c 36be da58 faba
000000c0: b0b8 0c3e e6cd 5abe 93b5 163e 97bf 1fbe
000000d0: 7cf0 f6bd 5575 173e 9989 283d 4bc9 d73d
000000e0: bc50 d6bd 80ac dabd b012 b6bd 7ebd 6fbe
000000f0: 1438 773d ef82 2bbe 6827 85bd 3af0 c1bd
00000100: 878e 463d 8936 4e3e facf 2cbe 19d2 26be
00000110: 3153 793e 55e6 323e 479f 063d 49e8 11be
00000120: a1e0 61be 73ca f6bd c426 2fbe 00a2 24be
00000130: 6f43 353e b88f 663c 4490 673d 945f 4b3e
00000140: 4235 5bbc a9a0 703e 04f6 4f3d 9d59 31be
00000150: a0b3 2fbe ca45 d7bd 073d e53b f8f3 bfbd
00000160: 5e8d 5d3e 2279 cd3d f246 9e3d 91df 88bc
00000170: b965 3dbe b681 483e 5320 e5bb 3ab4 0c3e
00000180: 8688 a9bc 4d79 fc3d 295f 4e3e 8210 48be
00000190: 0a1d f63d 9f01 bb3d d770 433e 5013 043e
000001a0: a610 77be cf9e 453e 3282 5b3d dcc6 80be
000001b0: 06a6 c13c 3d62 923c 9aaf 8ebd df32 cc3d
000001c0: c889 f53c 068d 5e3d db91 383e cf0b 6b3e
000001d0: f0dc 983c eca6 633e d7f6 63be 9567 1dbe
000001e0: 5ce0 323e ec5f 023e 6cb7 e4bd 3542 c5bc
000001f0: 5585 cc3d a843 a83d efbf ce3d 25a8 c03d
00000200: e00a acbd 2196 873b 9cdf b33c ea3a 413e
00000210: 9beb 1fbe 55ec d53b 667a fe3c 73d5 463c
00000220: ec45 f03d 7615 6abe 3412 04bb d35d 6e3e
00000230: dda9 133e 2832 ebbd f229 67be df3e 423d
00000240: 7cc2 31be 6fb7 ebbd dd72 2abe f030 49be
00000250: 162c 743b 5d87 38bb 9c36 28be b2d6 e8bd
00000260: 9e8d 3f3e 2668 1b3e c53d 5cbe 4460 babd
00000270: 04d2 e93d 4649 17be b432 39be 6597 1b3e
00000280: dab8 4e3e 2c72 13be f571 723e 5391 44be
00000290: 237f 423e aae8 37be f9f6 63bd 6594 6f3e
000002a0: 3dc9 36bd 58e9 ff3d fea7 0d3c 10de 413e
000002b0: a3cb 91bd e9cd 48be 9829 0e3e 1cd9 fa3d
000002c0: e3b2 86bd 6c12 223e a2d6 22be 0352 3abe
000002d0: 8eaf 193e a082 cdbd a840 07be 5a8a 773d
000002e0: 8c23 4fbe ea63 95bd ac90 0a3e d942 9bbd
000002f0: 77ac 9cbd 3c7b c63d 8ea7 8d3d ae64 dcbb
00000300: 3035 57be d591 2abe 52e7 83bd beeb b03d
00000310: 74e4 8b39 5768 2ebe 8a0d 45be df49 84bc
00000320: 723c 5dbe a5b1 0ebe 2cf5 1d3e 72b8 5abd
00000330: 1862 883e f5b4 0c3e b948 8abd 1afa 733e
00000340: 669d 423e 0933 22be f5c2 35be d128 803e
00000350: 0f8d 6f3e 0500 c0bd c534 0f3e 4ccc 0bbe
00000360: 3112 e5bc 4f47 583d cf46 77be 6551 f13d
00000370: 6887 5bbe 0c95 b9bc 709b 253d 779f 28be
00000380: b22d 673c e762 52be 2849 0cbe ad79 713e
00000390: 05d7 743d 475c a43d 5492 63be 2ebe 03be
000003a0: 2df9 e93b 26cb f03d 39d4 0e3e 552e 70be
000003b0: 3b3e 543e 5020 693e 7cf5 08be 3b5d 223e
000003c0: 5e5e 513e 4927 473e e5a0 debd 9700 6cbd
000003d0: fa9f 163d 70d8 25ba 60c8 833d 2007 023e
000003e0: 17f2 0c3e 14c0 1ebe 1c96 7dbe ac59 8ebd
000003f0: f9e8 60be fcbc 86bd 5cf2 093e 0ebf 2fbe
0.115312375 -0.19794896 -0.14034674 0.101446316 -0.0207485 0.22323582 -0.053137906 -0.03212477
-0.019920336 -0.09073078 -0.09096946 -0.19228956 -0.06525007 0.056917615 0.0837629 -0.062362503
-0.10237503 0.16042209 0.112863936 -0.11780225 0.17875785 -0.041196708 0.048666734 -0.15231018
-0.19799045 0.07908738 0.1162494 -0.14392076 0.09628217 0.2425171 0.09914854 0.19586346
-0.20154448 -0.18901318 -0.10289263 0.16375892 -0.06572832 -0.13004182 -0.11173921 0.18071173
-0.23588146 -0.10963175 0.09575958 0.08531096 -0.16215807 -0.1042245 -0.17832997 -0.0019099966
0.13742328 -0.21367607 0.14717703 -0.1560043 -0.120575875 0.14790852 0.04114685 0.105364405
-0.104646176 -0.10677433 -0.08890283 -0.2341213 0.060356215 -0.16749166 -0.06501657 -0.09469648
0.04847577 0.20137991 -0.16876212 -0.16291083 0.24348141 0.17470677 0.032866742 -0.14248766
-0.22058345 -0.12050333 -0.17104632 -0.16077423 0.17701505 0.014072351 0.056534067 0.19860679
-0.013379397 0.23498787 0.05077173 -0.17319341 -0.17158365 -0.10511358 0.0069958004 -0.09372705
0.21635959 0.1003287 0.077283755 -0.016708167 -0.18495835 0.19580731 -0.0069923787 0.13740626
-0.020694982 0.12327824 0.20153488 -0.19537547 0.120172575 0.091311686 0.19086014 0.12897992
-0.24127445 0.19298862 0.05359096 -0.25151718 0.023638736 0.01786911 -0.06967087 0.099706404
0.029972926 0.05433371 0.1802439 0.22953723 0.018660039 0.22231644 -0.2226213 -0.15371545
0.17468399 0.12731904 -0.111677974 -0.024079422 0.099863686 0.082160294 0.10095202 0.09407071
-0.08400512 0.00413777 0.021957211 0.1887013 -0.1561722 0.006528417 0.031064223 0.012135851
0.117320865 -0.22859749 -0.0020152451 0.23277979 0.14420266 -0.11484176 -0.22574595 0.04742324
-0.17359346 -0.115095966 -0.1664538 -0.19647574 0.0037257723 -0.0028156855 -0.16427082 -0.11369075
0.18706366 0.15176448 -0.21507938 -0.091003925 0.114170104 -0.14774045 -0.18085748 0.15194471
0.20187703 -0.14399022 0.23676284 -0.19196062 0.18993811 -0.17959848 -0.055655453 0.23396452
-0.04462551 0.12495679 0.0086460095 0.18932366 -0.07118919 -0.19609798 0.13883054 0.122484416
-0.06577089 0.1582734 -0.15902188 -0.18195347 0.15008375 -0.1003468 -0.13208258 0.060434677
-0.20228404 -0.07294448 0.1353175 -0.075811096 -0.076500826 0.09691474 0.06916724 -0.006725869
-0.21016383 -0.16657193 -0.06440605 0.08638714 0.00026682357 -0.1703199 -0.19243446 -0.016148506
-0.2160509 -0.13934954 0.15425557 -0.053398557 0.2663734 0.13740905 -0.06752152 0.23825875
0.19005355 -0.15839781 -0.17750151 0.2503114 0.23393653 -0.09375004 0.13984974 -0.13652152
-0.027962776 0.05280238 -0.24148105 0.11783103 -0.21438372 -0.022654079 0.04043144 -0.16467081
0.014110016 -0.20545541 -0.13699782 0.23581572 0.05977537 0.08025413 -0.22223788 -0.12865517
0.0071403 0.117574975 0.13948144 -0.23455174 0.20726864 0.22766232 -0.13374895 0.15855877
0.20446154 0.1944858 -0.10870532 -0.05761775 0.03677366 -0.0006326502 0.06434703 0.1269803
0.13764225 -0.1550296 -0.24764293 -0.06950697 -0.21963872 -0.06579015 0.13471359 -0.17162725

transformer.layers.0.linear1.bias f4 [64]
00000000: ca98 533e 116c 82be 6c1c 3a3e a8b6 2fbe
00000010: 8f05 cebd 4554 10be d221 01bc e394 2d3e
00000020: 2152 093e f590 0a3d 262a 07be 009d 4bbe
00000030: 3708 323e f5cf 723d 514a ff3d d786 d63d
00000040: 74da de3d a853 9a3d 6218 78be 33df 793e
00000050: abe5 aabc 4e17 9d3b decb 193e 9049 88bc
00000060: c63c 433e 3852 5c3e e992 0f3e 5efe 37be
00000070: ca16 1bbe 67b7 84be 2213 6b3e 6334 9f3d
00000080: 21d5 3cbe 1774 34be 8421 48be a332 e6bd
00000090: db84 5e3b dfef bfbd f8dd 5cbe 7d23 1e3d
000000a0: 0aa6 503d 0fb7 0b3e e67c 443e 5537 ccbc
000000b0: 8337 063d 4ff2 903c 53ce 00be fd76 d4bd
000000c0: f405 f73d ac4d f5bd fb47 95bd 5f12 6ebe
000000d0: 11b7 d83d f5c0 703e 9dab 4e3e 0b7c ccbd
000000e0: be33 543e ab1f d5bd 5b75 fcbd b5dc 7abe
000000f0: 496d 893c 7633 9bbd a7c7 1c3e 97a2 233c
0.20663753 -0.25473073 0.18174905 -0.17159522 -0.10059654 -0.14094646 -0.007881599 0.16951327
0.13410236 0.033829648 -0.13199672 -0.1988411 0.17385946 0.059280355 0.124653466 0.104749374
0.108815104 0.075354874 -0.24228051 0.2440155 -0.020861467 0.004794038 0.15019175 -0.01663664
0.19066152 0.21515739 0.14020886 -0.17968127 -0.15145412 -0.25921175 0.22956517 0.07773664
-0.18440677 -0.1762241 -0.19544035 -0.11240127 0.00339537 -0.09371924 -0.2156905 0.038608063
0.050939597 0.1364405 0.1918827 -0.024928728 0.032767784 0.017693667 -0.12578706 -0.10374258
0.12061682 -0.11977705 -0.0728912 -0.23249196 0.10581792 0.23511107 0.20182653 -0.09984597
0.20722863 -0.10406431 -0.12327071 -0.24498256 0.016775744 -0.07578175 0.15310536 0.009987495

transformer.layers.0.linear2.weight f4 [16, 64]
00000000: b2ce 93bd 5093 963d a022 823d c13e 40bd
00000010: 4b0b 8c3b 3ee1 dd3c fa95 223d 47f2 ab3d
00000020: 644c ddbd 7722 ed3d be72 a53d 3ae1 413c
00000030: 8f56 f0bd 7d65 6abd 1f70 ecbd fe1d e33d
00000040: 072a 273b 993f c03d 614a 87bc 8361 8f3d
00000050: 6f5f e5bc fa4f ec3c 0fe1 10bd 5a93 7ebd
00000060: ca8d 23bd 444f e3bd 1a93 e9bd 70c1 d2bd
00000070: 233c cb3d 13c3 cfbd 1bf2 2cbd adac 4cbd
00000080: 381c d73d ac14 823d b263 0ebc 75a8 1cbd
00000090: f614 88bd 56d6 3a3c 28bd 2d3d a4bf 9b3d
000000a0: 07a6 acbc a464 91bd 5d4d 65bc 0c2b 04be
000000b0: ea83 fa3d 8254 35bc 3527 06be 0d59 5cbd
000000c0: b674 b43c b147 b03d 5bed 24bd 67b0 af3d
000000d0: 070a 1f3d ba52 96bc 30eb 9e3d 61c3 633d
000000e0: 7050 6e3d 4b01 dd3d 9680 ad3c b36b da3c
000000f0: 24f5 5b3d b07d 31bc 6623 41bd 5e80 eebc
00000100: 0bb3 b33d ef18 8bbd f4ed 403d c600 bd3d
00000110: c72a 69bb 3998 1b3d fcad 43bd 6903 8cbd
00000120: fa33 743d 83a2 83bb d4fb 3ebc 38b2 b03d
00000130: 0f4e 073e 6c4a 9c3d 7c24 38bd 3ff9 49bd
00000140: 87d3 99bd 63b6 17bd cfc1 eebc 3228 cabd
00000150: 7330 8ebd 6e19 84bd 20af f23d aaec db3d
00000160: 9395 8a3d d222 903d 673b b23d 6d13 a0bc
00000170: 5b90 a2bd 6625 9fbd 2d10 4bbd a7e8 97bd
00000180: 580a 773b 556d 04bd 0d46 b53d 2aca f73b
00000190: 5ab9 fe3d 8db3 dabd d215 14bc f526 fc3d
000001a0: fef3 b23d fc66 8f3b b5ef 82bd 9354 b2bc
000001b0: ed38 53bd 2f5a c1bd 980c 933c c453 063d
000001c0: 963f 1fbc 0858 fd3c bc2d f93d 5b5d c3bd
000001d0: 66ab dcbd ff19 b3bc ca7b d73d 288f 2abd
000001e0: dc93 46bd ea9a 5cbd a94b 5c3d 2850 c33c
000001f0: f427 b5bd 6e56 9fba f4f1 70bc 5d75 bc3d
00000200: 6380 3d3d b622 a43c bd81 c7bd c60a f03d
00000210: 4bcd 5f3d 6683 f5bd 7ed3 12bd 29d6 0a3d
00000220: b0db 00be b604 22bd dc86 d1bd e61c f83d
00000230: bae5 b4bd 2b46 96bc b52e c4bd 4c8b 843d
00000240: 74d6 05be 680b dd3c ec46 71bb 0388 f3bc
00000250: 4ec5 2dbc af8b a6bd 0d84 b6bd 316d 063d
00000260: 6fdb 61bd 82f9 b8bd 6503 4abd 8809 033e
00000270: f104 8e3d a2ac 03bd e4e1 9c3d 1cac 34bd
00000280: da8e c4bd 0801 e83d a2de eabd 6d61 923d
00000290: 059b c8bd 4f07 983d 0df4 7cbd cdbf ddbc
000002a0: 0483 84bd 8757 1a3d 3fec 94bc e1ee abbc
000002b0: b9d9 433d 773d c03d 9b3f fe3d 116f 54bd
000002c0: a2e5 d6bc c989 503d 7972 bdbd 3936 61bd
000002d0: 9f29 17bb 69ed afbd 1262 02bd 508d 743d
000002e0: 44ee 61bd 7109 d63d 969a 0abe 6e39 82bd
000002f0: 0fff e6bd ad82 f53d 48de afbd 2e24 f43d
00000300: a820 ef3d c1d6 9bbb 7e68 92bc ece2 d1bd
00000310: 69c4 b23d 85e9 a53d 9ba0 0d3d 5df9 8e3c
00000320: 9f9e f0bd fb59 86bd 39da 74bd b28d de3c
00000330: c364 e53d cd88 cbbd ddcd ab3d b60d e63c
00000340: 5998 07bd 83b5 7ebd ddf4 adbd 7e6e 8b3d
00000350: 78e0 e4bd bb24 bbbd a79a e73c f9ab fd3c
00000360: a869 97bd 00b4 97bd 7d2a b5bc ad09 82bd
00000370: 0134 f13c e6e1 b3bd 9242 93bd 37ee 31bb
00000380: ea94 cbbd dc48 8bbd 83e9 7b3d f2b9 3ebd
00000390: ef7b 6cbd 8cdb a23d c97a 04bc 62c6 cc3c
000003a0: 0fee 70bd 1188 9b3d c218 ce3d fd0e aa3d
000003b0: dd34 993d adfa ee3d 469e 27bd bca7 7fbd
000003c0: 196b c1bc 60b3 983d 1689 21bc c45f e4bd
000003d0: 52f2 5b3d 7b07 7fbd 4e0b f43d e216 6abd
000003e0: 9f9d cb3d 3b36 8f3c 6ac5 9ebd 7f2a 8d3d
000003f0: 4b67 b2bc 9e7b cabc a28c 283c f492 713d
-0.072171584 0.073523164 0.063542604 -0.046934847 0.004273807 0.027084943 0.03969381 0.0839582
-0.10805586 0.11578839 0.08078526 0.011833483 -0.1173526 -0.057225693 -0.11544823 0.11089705
0.0025507228 0.0938713 -0.016514959 0.07001021 -0.027999608 0.02884673 -0.035370883 -0.062152244
-0.039930142 -0.11099103 -0.114050105 -0.102908015 0.099235795 -0.10144629 -0.042223077 -0.049969364
0.10503429 0.06351599 -0.008690761 -0.03824659 -0.06644623 0.011403641 0.04241672 0.07604912
-0.021075262 -0.07099274 -0.013995496 -0.12907046 0.12232192 -0.0110675115 -0.13100894 -0.053795863
0.022028308 0.08607424 -0.040265422 0.08578568 0.038827922 -0.018349994 0.07759702 0.05560625
0.05818218 0.10791262 0.021179479 0.026662683 0.05370058 -0.010833189 -0.0471529 -0.029113945
0.08774384 -0.06791865 0.04710193 0.09228663 -0.0035578476 0.037986968 -0.047773346 -0.06836588
0.05961988 -0.0040171756 -0.01165672 0.086277425 0.1321337 0.07631382 -0.04495667 -0.049309965
-0.07511049 -0.037039172 -0.02914515 -0.09870948 -0.06942835 -0.06450163 0.11849809 0.107384995
0.0676681 0.070378914 0.08702736 -0.019540513 -0.0793769 -0.07770805 -0.049575973 -0.07417422
0.0037695374 -0.03233083 0.08851252 0.0075619416 0.12437697 -0.10678778 -0.0090384055 0.12312118
0.08737944 0.0043762904 -0.06393377 -0.021768844 -0.05156796 -0.09441029 0.017950341 0.03279473
-0.00971975 0.030925766 0.12166926 -0.095392905 -0.10774879 -0.021862982 0.10521658 -0.04164043
-0.048480853 -0.053858675 0.053783093 0.023841932 -0.08845511 -0.0012156495 -0.014706124 0.09202073
0.046265017 0.020036083 -0.097415425 0.11720805 0.054639142 -0.11987953 -0.035846226 0.033895645
-0.12583804 -0.039555274 -0.102308005 0.12114887 -0.08832879 -0.018344006 -0.09579221 0.06471881
-0.13070089 0.026982978 -0.0036815954 -0.029727941 -0.010606123 -0.08132111 -0.089119054 0.032818977
-0.05514091 -0.09031965 -0.049319644 0.12796605 0.06934536 -0.032147057 0.07660273 -0.04410945
-0.09597559 0.11328322 -0.11468245 0.07147489 -0.09795193 0.07423269 -0.061756182 -0.027068997
-0.06470302 0.03768113 -0.018179057 -0.02098793 0.04781506 0.093867235 0.124144755 -0.051863734
-0.026232544 0.050912652 -0.092503496 -0.05498335 -0.002306558 -0.08590204 -0.03183181 0.05970508
-0.05515887 0.104510196 -0.13535532 -0.0635861 -0.11279117 0.11987815 -0.08587319 0.11920963
0.116761506 -0.0047558253 -0.017872091 -0.1024836 0.087288685 0.08101181 0.034576993 0.01745289
-0.117490046 -0.06560131 -0.059778426 0.027167175 0.112008594 -0.09938202 0.08388875 0.02808271
-0.033104274 -0.06218482 -0.084939696 0.06808184 -0.111756265 -0.09137865 0.028271986 0.030965792
-0.07393199 -0.07407379 -0.022114987 -0.06349502 0.029443743 -0.08783321 -0.07190432 -0.0027150044
-0.099405125 -0.06801006 0.06150199 -0.04656405 -0.05773538 0.079520315 -0.008085915 0.02499694
-0.05882078 0.07594312 0.10063316 0.0830364 0.07480786 0.11668906 -0.040922426 -0.062415823
-0.023610638 0.07456088 -0.009859344 -0.11151078 0.05369789 -0.062262993 0.11916219 -0.05715073
0.09942173 0.017481914 -0.077524975 0.06892871 -0.02177777 -0.024717148 0.010287436 0.058978036

transformer.layers.0.linear2.bias f4 [16]
00000000: a543 263d c85e a2bd 7514 bebd cc59 9e3c
00000010: cf77 14bc debd 0abd 176a edbd 900c 863c
00000020: e984 e13d 3aee e83d a746 653d 94ec 80bd
00000030: a32f ffbd 6af8 483d 5c79 a53d fbbf ec3d
0.040591855 -0.07928234 -0.092812456 0.019329928 -0.009061768 -0.033872478 -0.11592501 0.016363412
0.11011679 0.11373563 0.055975582 -0.06295124 -0.12460258 0.04906503 0.08079788 0.11560055

transformer.layers.0.norm1.weight f4 [16]
00000000: ac24 813f 8d3b 803f ce8b 7f3f 89ed 7e3f
00000010: df68 803f fe55 813f c818 803f e06f 7f3f
00000020: 0f61 7f3f 6fa5 7a3f 4e74 803f afb4 803f
00000030: efae 823f afbb 803f 1642 823f a8b2 7d3f
1.0089316 1.0018173 0.998227 0.995812 1.0032004 1.0104368 1.0007563 0.9978008
0.99757475 0.9790868 1.0035493 1.005514 1.0209635 1.0057276 1.0176418 0.9910073

transformer.layers.0.norm1.bias f4 [16]
00000000: 19b1 af3b c3c8 6f3c 258f cc3a 6808 f8bb
00000010: 418c aebb 21d9 c03a 804b 62bb d377 253c
00000020: c450 41bc f652 a5bb 8d1c d7bb 2d65 1a3c
00000030: 8966 00bc 2cc6 ec3b 5e1c 783c 5e50 d9bb
0.005361688 0.014635268 0.0015606625 -0.0075693615 -0.005326778 0.0014713147 -0.0034529865 0.010099369
-0.011799041 -0.00504529 -0.006564683 0.009423536 -0.007836946 0.0072257724 0.015143482 -0.006631895

transformer.layers.0.norm2.weight f4 [16]
00000000: 94c5 803f f616 7f3f 0333 803f 53ef 7e3f
00000010: 7d3d 803f 4ddc 803f 7645 803f fd24 7e3f
00000020: eb40 7e3f 7e4f 793f 45b8 803f 304f 803f
00000030: 8c9b 823f 2742 803f e23b 823f 4f3c 7e3f
1.0060296 0.9964441 1.0015568 0.9958393 1.0018765 1.006723 1.0021198 0.9927519
0.99317807 0.9738692 1.0056235 1.0024166 1.0203719 1.0020188 1.0174525 0.99310774

transformer.layers.0.norm2.bias f4 [16]
00000000: 52f5 813b 00cb 693c 019a 4db9 6dee ebbb
00000010: 2eaa acbb 7b34 de3a cb9e 0ebc c8a6 7e3b
00000020: 2c12 7fbc 31e6 12bc 69eb efbb dd61 033c
00000030: 2f49 8ebb 4208 ea3b 14c9 7e3c ff7d b5bb
0.003966012 0.01426959 -0.00019607694 -0.0072000534 -0.0052693104 0.0016952896 -0.008704851 0.0038856734
-0.015568297 -0.008966015 -0.0073217642 0.008018938 -0.0043422203 0.0071420977 0.01555087 -0.0055387015

transformer.layers.1.self_attn.in_proj_weight f4 [48, 16]
00000000: 33e0 f6bd 4bbc 523d aa2e 6b3e 98a8 39be
00000010: e392 a53d 5b5e 933e a4e2 6e3e 3d6c 9abe
00000020: dd24 863b c05a 14bd 1f1f a93d bce5 5bbe
00000030: 2e51 78be 1b12 01be e74f 65be cb6a 123e
00000040: dee7 95be f554 0c3e 4e1c 983d 0afa 803e
00000050: f5e7 93be 4c10 83be ca70 1a3e c73a 8cbe
00000060: 4e87 e2bd 8f82 4a3d a0f9 843e d705 5bbe
00000070: dfcb 82be 0274 ebbd 2c2d 85be c327 cebd
00000080: fc88 403d da01 8cbe 2a46 8cbe 9765 87be
00000090: dd63 6dbe c129 7e3e 6813 173e 2079 e83d
000000a0: 3510 923d 5339 d23c ad0c 52be 4ce9 9b3c
000000b0: 25c7 eebc 51c1 bbbd d8fe 12be 8023 33be
000000c0: 073d ac3d b6ca a1bc 107e 503e bf7d af3a
000000d0: e518 063e dd4e 77bc de22 083e d417 023e
000000e0: f278 823e b39c 823c 7564 f73d 9727 7dbe
000000f0: 53f5 97bc bd39 3e3d 3e97 bcbd 3000 18bc
00000100: 8114 a7bd 4363 75be 3560 19bc bcd8 bcbd
00000110: d828 753e 87e7 303e 2404 703c 03ce f03d
00000120: 0c45 253e 90f6 883e 3949 c8bc fee1 503d
00000130: 4c34 f43d bfd1 75be e54a c0bd 71a4 66bd
00000140: c8dc a9bd f590 28bd 71d3 903e e80d 2abe
00000150: ccf2 933e a48e 0ebc 4577 69be 308f 693d
00000160: b0b8 153e e6ce 773e 6e16 d83d 4374 833c
00000170: f2ed b9bd da2d 62be 3a9c 243d 146f 873d
00000180: d9eb 343e fdd4 083e 77e9 6dbe 55bd 493d
00000190: 24ea 58bd 7b57 a0bd d852 183d e400 723e
000001a0: b14d 673e d5b9 4cbe bace e33d 3c81 663e
000001b0: 8a88 b0bd 2072 6ebe 1bc1 96be df3d cd3d
000001c0: c232 bd3d 1fd3 d6bd 3143 28be 0041 3d3e
000001d0: e044 94be 7b58 40be 3440 0ebe a783 f9bc
000001e0: 7848 6f3e 65cc 0c3e d92c 9a3d 3e5c b2bc
000001f0: 7251 62be 7277 163e a46a 963a 81a0 4c3e
00000200: 136f 693e b434 6dbe 7ad7 a63e e46e c7bd
00000210: e143 4bbe 9b62 14be c30c 1d3e 7560 4e3d
00000220: d78d 173e 4e86 e9bd ec39 5a3e f5f3 6cbe
00000230: e378 40be bb90 a8bd 7a31 2fbe f10d 643e
00000240: 47f7 6fbe a575 1fbd a716 193e f2d8 a93d
00000250: 68ea 833e c793 7a3e 0cd0 823e 06d0 a23d
00000260: 60a0 27be 06fa 5e3e 3633 0b3e 24ca fcbd
00000270: 00dc 93be e888 7ebe 4747 47bd a13b 81be
00000280: 67d6 8bbd a2ed 923e 99a3 193e 0aa6 a33e
00000290: 6869 0fbe 3e4b 2e3e 6bda 17be 309a 953e
000002a0: 82e9 07be 013f 53be 8935 263d 6a4c 873e
000002b0: 3e86 533d c7d6 df3c c60a c8bd b7cb 14be
000002c0: 0348 7f3e 6be8 74be 1768 9f3d 3885 4ebd
000002d0: 02dc 643e 9cca 02be d36f 2a3c ae89 b8bd
000002e0: 1205 7a3e a5e5 c2bd 250d 25be 95d3 0ebe
000002f0: cd25 13be 915b 903d d319 8f3e 00c0 373e
00000300: 4dd2 343e 797c 133e 1932 30be d9fc 81bd
00000310: a2ba 96be d90e aa3d 64fc f63d 168f 8e3d
00000320: 7dda 34be b3d0 8f3e 281b 403e 5243 22bc
00000330: 63c6 cd3d 8fde 8b3e 3d10 59bd 6178 803d
00000340: 2a1e 0dbe 833f 3abe 321f 193e cb70 88be
00000350: 5c0a 843e 5822 3abe bb03 d1bd 3848 9a3e
00000360: a321 90bd 86c9 a0bd 6bdc d1bc e2e3 673e
00000370: 2fb1 1c3e 4a56 86be cf40 34be 6c83 843b
00000380: bad0 d23d 9fa7 2d3d ee2d 94bc 085d 4abe
00000390: fcbe 873e c0ec 3c3d 2a61 85bd d1bd 59be
000003a0: d0ce 323e 5102 2bbe 6166 793e bc0b 373d
000003b0: a28b d1bc dacb 4cbd ef82 72be 3c6f 73be
000003c0: 5d90 943e e759 1b3e 836e 41be 4a39 9ebd
000003d0: f922 d0bb f0bd 653d 2587 473e 2dd1 24bd
000003e0: fead 28be be43 91bd 8801 1fbb 9bb7 8d3e
000003f0: 6e98 7dbe df5a a2bc bdf7 81bd d34e 8bbe
-0.12054481 0.0514491 0.2296702 -0.1813072 0.08084657 0.28782925 0.23328644 -0.30160704
0.00409375 -0.03621936 0.08257889 -0.21474355 -0.24249718 -0.12604563 -0.22393762 0.14298551
-0.29278463 0.13704284 0.07427274 0.25190765 -0.28887907 -0.2559837 0.15082088 -0.27388594
-0.110609636 0.049440917 0.259717 -0.21388946 -0.25546166 -0.11496736 -0.26011026 -0.10066178
0.04700564 -0.27345163 -0.2739728 -0.26444694 -0.23182626 0.24820615 0.14753497 0.11351228
0.071319975 0.0256621 -0.20512648 0.019032143 -0.029147694 -0.091677316 -0.14355028 -0.17494011
0.084100775 -0.01974998 0.20360589 0.0013388916 0.13095434 -0.015094486 0.13294551 0.12704402
0.254829 0.01594386 0.120797075 -0.24722134 -0.018549597 0.046441782 -0.09208535 -0.009277388
-0.08158208 -0.23963647 -0.009361316 -0.09221026 0.23941362 0.1727582 0.014649425 0.117580436
0.1613962 0.26750612 -0.024448978 0.050996773 0.11924037 -0.24005793 -0.09389285 -0.056309167
-0.08294064 -0.041153867 0.28286317 -0.16606867 0.28896177 -0.008701 -0.22799404 0.05702132
0.14621234 0.24200019 0.10551153 0.016046649 -0.090785876 -0.22087803 0.04018805 0.06612983
0.17668094 0.13362499 -0.23233591 0.049252827 -0.05295767 -0.078291856 0.03718838 0.23633152
0.2258823 -0.19992764 0.11123414 0.22510237 -0.08619793 -0.23285723 -0.29444203 0.100215666
0.09238197 -0.10489487 -0.16431881 0.18481827 -0.28958797 -0.18783753 -0.13891679 -0.030458285
0.23367488 0.13749845 0.07528085 -0.0217725 -0.22101381 0.14694002 0.0011475873 0.19983102
0.22796278 -0.23164636 0.3258627 -0.097379476 -0.19850112 -0.1449074 0.153369 0.050384957
0.14800201 -0.1140257 0.21311158 -0.23139937 -0.18796115 -0.0823073 -0.17108718 0.22270943
-0.23434173 -0.038930554 0.14950047 0.08293332 0.25764775 0.24470435 0.25549352 0.079498336
-0.16369772 0.21775064 0.13593754 -0.12343243 -0.28878784 -0.24856913 -0.04865196 -0.25240806
-0.068280034 0.28696924 0.15003814 0.31962615 -0.14005053 0.1702089 -0.14829414 0.29219198
-0.1327267 -0.20629503 0.0405784 0.26425487 0.051641695 0.027324094 -0.0976768 -0.14530836
0.24929814 -0.23916785 0.077835254 -0.050420016 0.22349551 -0.12772602 0.0104026375 -0.09010635
0.24415997 -0.095164575 -0.16118295 -0.139479 -0.14369889 0.07048715 0.2794939 0.17944336
0.17658348 0.14402951 -0.1720661 -0.06347055 -0.29439265 0.08303613 0.120598584 0.06960885
-0.17661472 0.28088912 0.1876036 -0.009903746 0.10047605 0.27318236 -0.052994 0.062729605
-0.13781038 -0.1818829 0.14953306 -0.26648554 0.25789154 -0.18177164 -0.1020579 0.30133224
-0.07037666 -0.078509375 -0.025617799 0.22645524 0.15301965 -0.26237708 -0.17602848 0.004043987
0.10293718 0.042396184 -0.018088307 -0.19762051 0.26512897 0.04612422 -0.06512673 -0.21263815
0.17461705 -0.16700102 0.2435546 0.044688925 -0.025579277 -0.049999095 -0.2368276 -0.23772901
0.2901639 0.15171014 -0.18889813 -0.07725771 -0.0063518253 0.05608934 0.19485147 -0.040238548
-0.16472623 -0.07092999 -0.0024262387 0.27679142 -0.24765179 -0.019818721 -0.063460805 -0.27208576

transformer.layers.1.self_attn.in_proj_bias f4 [48]
00000000: edcb 1cba c926 bdb9 5046 4d3c 89ab 8f3b
00000010: 2a22 b0bb 07e6 2cbc 426e 52bc 219e 0fbc
00000020: f14b a9bb 3244 3a3c 97cc b03b 7830 e8ba
00000030: ba10 f439 030a 07bc dbc2 77bc a031 e63b
00000040: 1a4b 1f39 ba10 1bb9 2317 c337 e3b6 44b7
00000050: ad3c 0538 4995 1eb9 21dc b638 278c 1f38
00000060: 1463 3cb9 d01c 6939 be76 d7b8 391c 52b9
00000070: 5704 52b8 bc6c 9938 7194 2a38 bdd6 a536
00000080: 8f73 bd3b 4249 1ebc 8773 e8bb 2aa9 163c
00000090: 06f1 97bb e9a0 cf3a f5e2 5a3a 353a 9cbb
000000a0: 877a 72bb 6ccf a0bb 2149 333c c457 98bb
000000b0: a50c b63b 32a8 a13c 630c b3bb e9af 2d3c
-0.0005981315 -0.00036077786 0.012528971 0.0043844623 -0.0053751664 -0.01055289 -0.01284367 -0.008765728
-0.0051665236 0.011368798 0.0053954828 -0.001771464 0.0004655177 -0.008242133 -0.015122141 0.0070249587
0.00015191399 -0.00014788183 2.3256585e-05 -1.1725092e-05 3.176618e-05 -0.00015123667 8.7194385e-05 3.803908e-05
-0.00017965987 0.00022231345 -0.00010274116 -0.00020037674 -5.0071943e-05 7.315862e-05 4.0669405e-05 4.942382e-06
0.005781598 -0.009661021 -0.00709385 0.009195605 -0.0046368865 0.0015840802 0.0008349859 -0.004767681
-0.0036999302 -0.004907539 0.010942728 -0.0046491344 0.0055557066 0.019733522 -0.005464123 0.010601022
